Phase2/Checkpoints/model.ckpt (torch, 699050 bytes, 30 tensors)

LeNet.0.weight f4 [6, 3, 5, 5]
00000000: 921b 0abe 43e4 433d 2334 9fbc c7fc 9bbd
00000010: 20d6 eabd fe8c 4a3c 2700 8d3d a1f7 093d
00000020: 81f1 f4bd 30a8 5ebd bbf8 e3bd d8df 123c
00000030: e65e 983d 2dba 163d e08a 613d 58f9 c0bc
00000040: 7063 0abd a4f1 fc3d 7cfe bd3d 7216 1b3e
00000050: c972 4fbd 3511 283e 7951 913e fea8 b03e
00000060: 7c84 c73e 293a 12be 206e 28be 4d77 c03c
00000070: 29a1 adbd 170f b6bd 701a 2c3d 5a9a c1bd
00000080: e4a0 43be c4d9 0ebe 38a9 e7bd afdd 1e3d
00000090: 2cf0 34bc c363 1bbe 66f5 243d f3c0 9abd
000000a0: 2592 6fbd 844f c33c f99d 0d3e 108b 313e
000000b0: 89f3 543d ce1d 203d 5e98 973b 2aac 343e
000000c0: f30a d53d 7d84 6a3e 7404 3bbd 4fb4 12bd
000000d0: bff2 d5bd 8b81 bebd 8c33 eabd 9a64 c2bd
000000e0: 8c7e 3abe c45e c0bd 1afd b7bd 5576 a93c
000000f0: f92d 5dbe 703e 2dbe 2b73 08be 2172 f9bd
00000100: 942b 4c3d 3348 75be 6bd9 fcbc 7430 77bc
00000110: 0cd7 97bd b7f4 f73d 1dc7 1ebe a414 68bd
00000120: 74cc 75bd ddd1 4a3e a913 1f3e c4a6 963d
00000130: 5aa2 ec3d 7d65 7f3d 7c4f df3d e70a bb3c
00000140: 4eba 863e c214 273e 2cd3 753e 1a74 013e
00000150: 154b 67bc dc76 8e3e 8a43 163e 500e 013e
00000160: 2a59 053e 8804 313e 6754 863e d018 4a3e
00000170: 7a7f 7c3c 390d ea3d b540 0e3e 3123 123d
00000180: b039 593d aac6 493c f5ca 243e a42f 4cbc
00000190: ebc4 0dbd 6beb b13d 5cdd a73d fda1 34be
000001a0: 0a87 56be aad4 1a3e 6651 133d 81e5 ad3c
000001b0: 4a15 21be bd25 a5bd 6cee 2a3d fa47 12bd
000001c0: 99a0 08be 737e 52be 5195 ddbd 52e0 7e3b
000001d0: 9c61 efbd 4760 a2bb aef0 c6bd 8142 dfbd
000001e0: 506d b13d a5fa 16bd b22a fabd 86c3 d4bd
000001f0: 9261 77bd 977f 503d d656 babd aced ebbd
00000200: 7679 81bd 66fb 24bd 8a35 d03c 8f1e 17bd
00000210: 654b ffbc 8368 5bbd bd5a ecbd 153f e33d
00000220: 1a85 c1bb 862a e9bd 9546 0ebe b665 9abd
00000230: cd28 0b3d 3f97 16be e509 47be 6012 29be
00000240: 9850 28be e77d 993d d194 43bc 81d2 49bd
00000250: 04d8 4cbe ab41 44be 5729 15be 2915 bfbd
00000260: 1c1d 86be 204f 63bd 1d60 22be 911c e6bd
00000270: 6b9a 0a3c 4044 e8bd 5308 ffbd 61c6 cfbd
00000280: 024f 04be 9244 7ebd 6494 b9bc 6773 fbba
00000290: c9e4 01be d67b c7bc 8a64 eb3d b03b db3d
000002a0: b186 abbc fd7d 32be 9f81 bb3d 850a 1b3e
000002b0: 48e1 c03d d150 d4bd db58 57bd 3903 623d
000002c0: a149 813d 69c7 dfbd 709b b63d eca4 dcbd
000002d0: b738 223e 8f7a 4cbc 9cb4 973d 36e9 f33d
000002e0: 0f5e 473d d7f0 593e 54ea 963e def1 f93d
000002f0: 3ac8 1a3e d5f8 f53d 0908 443e 525b 903e
00000300: e1b8 bb3e e547 743e 0724 273d 1eef d23d
00000310: 51a5 a83e 4bf6 363e 6be4 363e 27a3 6e3d
00000320: 8f91 92bc 4ccb d9bb 1af2 7cbd 5b40 c3bd
00000330: 5c9b dabd 6593 d53d 9608 6fbc 30a2 2cbe
00000340: 3006 03be f515 5ebe 78f5 b43d 2d4e 903c
00000350: 424b b2bc 256e e8bd 0a4f 16be 0bc8 ddbc
00000360: 1295 153e 29ee 343e 60ce 0ebc 552f 27be
00000370: cd12 013e b29d 6f3e 6e5f eb3d 953f ff3c
00000380: 79f8 79be 3aa6 173d 4a3a 45bd 869c e03d
00000390: ad9b 8bbb 403b 44bd 93e5 b33d 034b 033e
000003a0: 7538 bc3d 7a43 023e 8a54 9d3d b5ec 803d
000003b0: 06cb 213e ed41 073d f4d2 9fbd 91da d2bc
000003c0: a410 7ebd 02a9 c03d ccd0 7ebc 68ed 493d
000003d0: bf3a e33b 0b80 e9bd a1b2 b1bd 93a7 c83d
000003e0: 2c15 6a3d d9d6 f1bd 2a05 05bd 47b6 b6bd
000003f0: 2c3f 0bbd f378 4bbd b9d8 b23c dfa9 bdbd
-0.1348708 0.04782511 -0.01943404 -0.07616573 -0.11466622 0.012362717 0.06884795 0.033683423
-0.11960126 -0.054359615 -0.11131426 0.008964501 0.074399754 0.036798645 0.055064082 -0.023556396
-0.033786237 0.12350777 0.09277055 0.15145281 -0.050646577 0.16412814 0.2838247 0.3450393
0.38968265 -0.14279999 -0.1644826 0.023494387 -0.084780045 -0.08889597 0.0420174 -0.09453268
-0.19104344 -0.13950258 -0.11311573 0.038785633 -0.01104359 -0.15174775 0.040273093 -0.075563334
-0.058488984 0.023841627 0.13829793 0.17338204 0.051990066 0.039090924 0.004626318 0.176438
0.10402479 0.22902103 -0.045658544 -0.035816487 -0.10446691 -0.09302052 -0.11435613 -0.094918445
-0.18212336 -0.09393075 -0.08983822 0.020686308 -0.21599568 -0.1691835 -0.13325183 -0.121799715
0.049846247 -0.23953323 -0.030865392 -0.015087236 -0.07414064 0.121072225 -0.15505643 -0.05666031
-0.060009435 0.19806619 0.15534844 0.07356027 0.115544036 0.062352646 0.10903832 0.022832347
0.26314014 0.16316512 0.24006337 0.12641945 -0.014117022 0.27825058 0.14674202 0.12603116
0.13022295 0.17286885 0.2623627 0.19736028 0.015411252 0.11428303 0.13891871 0.035678092
0.05303353 0.012315432 0.16093047 -0.01246253 -0.034611624 0.086874805 0.08196518 -0.17639919
-0.20949951 0.15120187 0.0359663 0.0212276 -0.15730777 -0.08063839 0.041731283 -0.035713173
-0.13342513 -0.20556049 -0.108194955 0.003889103 -0.116885394 -0.004955325 -0.09713875 -0.109013565
0.08663428 -0.036860127 -0.12215175 -0.10388856 -0.060395785 0.05090293 -0.09098594 -0.11519942
-0.06321995 -0.040278815 0.025416154 -0.036894377 -0.03116388 -0.053566467 -0.115407445 0.11096016
-0.0059057595 -0.11385064 -0.13894112 -0.07538931 0.033974458 -0.14706133 -0.19437368 -0.16510916
-0.16436994 0.07494717 -0.011937336 -0.049273018 -0.20004278 -0.19165675 -0.14566551 -0.09330208
-0.26194084 -0.05549538 -0.15856977 -0.11235917 0.008459668 -0.11341143 -0.124527596 -0.1014526
-0.12920764 -0.062077112 -0.022653766 -0.0019184173 -0.12684931 -0.024351042 0.11493786 0.10704744
-0.02093825 -0.17430873 0.09155583 0.15140732 0.09417969 -0.10366977 -0.052574974 0.055178855
0.06312872 -0.10926706 0.08916366 -0.10773644 0.15841947 -0.012480392 0.074074954 0.11909716
0.048673686 0.2128328 0.29475653 0.12204336 0.15115443 0.120103516 0.1914369 0.28194672
0.3666449 0.2385555 0.040805843 0.10299514 0.32938626 0.17867391 0.17860572 0.058261063
-0.017891673 -0.0066465493 -0.061754324 -0.09533759 -0.10674164 0.10428504 -0.014589449 -0.16858745
-0.12795329 -0.21688063 0.08835882 0.017615402 -0.021764401 -0.113491334 -0.14678589 -0.027072927
0.14607647 0.17668976 -0.008716196 -0.1632665 0.12604828 0.234 0.11492811 0.031158248
-0.24411191 0.03702376 -0.048151292 0.109673545 -0.0042605014 -0.047908068 0.08784022 0.12821583
0.09190456 0.12721053 0.0768214 0.06295148 0.15800104 0.033021856 -0.07803908 -0.025738986
-0.06202759 0.09407236 -0.015552711 0.049298674 0.0069344933 -0.114013754 -0.08676649 0.09797587
0.057149097 -0.11808557 -0.032475628 -0.089214854 -0.033995792 -0.049675893 0.021831857 -0.09260916

LeNet.0.bias f4 [6]
00000000: e8aa 773e ae1e 33be 2357 68be a13a 6dbe
00000010: f038 453e f9a7 aebd
0.2418629 -0.17492172 -0.2268949 -0.23166896 0.19260001 -0.08528132

LeNet.3.weight f4 [16, 6, 5, 5]
00000000: 424e 2b3e ba24 f03d a82a 883d db75 6c3d
00000010: 8add b1bd 2afe 133d db2b f8bd c9c8 2c3d
00000020: 379f c83d fe3f 61be 59f2 2a3e 38a5 1a3e
00000030: d626 57bc d38a d5bd 7c4b b9be 2a2a bb3e
00000040: 3f02 523e 71ab 0e3e 4a86 a9bd f5ae aabe
00000050: 651b 103e 0e70 56bd 8b9d 1fbe 8994 a6be
00000060: 8c25 16bf 3344 513d 1788 e63d ee23 c63d
00000070: a582 babb f953 f2bd 9839 2b3e 1791 7d3e
00000080: f0be cc3d c65b 04be 00c5 02be 0991 4e3e
00000090: 43f6 b33e a4b3 1d3e d6ad abbe 1c4c dabe
000000a0: 142a 343e 4174 d03d f657 7abd 583a e5be
000000b0: 3095 06bf 1e07 93bd b635 cd3d d9c8 043e
000000c0: e0a1 9ebe 96e2 03bf 8f6a cc3d 8437 c43d
000000d0: 1bec 2e3e 4caa 663e 1063 913d 2488 a1bc
000000e0: 80ab b33d 897b 3c3b 9101 ca3d 69b2 0a3e
000000f0: 2ead 87bc 4938 64bd b445 82bd 38c5 783d
00000100: 5577 6c3e 6964 0bbe aeff 113e cbbe 0e3e
00000110: 3264 5d3d cd6d 493e 30dc aabd fa06 e73b
00000120: e984 ed3d dac6 0f3d 4967 013e ded9 0bbe
00000130: 60fe 55bd 5494 7f3d c89a 0c3e 9dfc 1b3e
00000140: 1422 dcbd 8233 11be 6b06 09bd 5be0 123d
00000150: 3740 1b3e df73 12be 568a 11be 28fe 30be
00000160: 2c32 043d cf92 963e f553 5ebe 9a3f 9bbe
00000170: 6863 7ebe a373 81bd 3d6d 573e 13bb 91be
00000180: 7362 87bd b5d5 d6bc 4d36 af3d 3e6e b83e
00000190: 23bb f5ba 09f0 1dbc acd3 92bd 5d8d 713c
000001a0: cf47 5abd 3ed5 0e3c 15ed fb3d 3b74 9d3d
000001b0: ed0e 66bd 920e f5bd dffc 233d 93b1 83bd
000001c0: 072c ad3d 8646 1c3d a09c 80be ea3f 323d
000001d0: 964e 54bd 7bd5 7abd 7404 83bd 784a 11be
000001e0: 9188 713d 33dc 05be 630f e6bd 77d1 fcbd
000001f0: 2209 4dbe 5c6b e4bd fbf7 9dbd ae44 b1bd
00000200: cdc6 8bbd 6a52 75bb 71a4 e73d 4ed8 7c3e
00000210: b2ea f63d 6d39 943b fda3 2abd 9e2b 393e
00000220: b3d6 fd3d 1410 283e 3384 473e 71a5 cdbc
00000230: 1b2b 363e 80a9 af3c bcc2 9bbd e58e f33d
00000240: b3f2 fd3c 3516 e93d 4a67 243e 37c3 293e
00000250: 27d7 9e3d 3d2a db3c a34d 883e e591 a13d
00000260: e7fa 00be c8af 37be 7283 113b a7e3 5ebe
00000270: 5dc1 debe 83cd 2ebf 4cbe dcbe f8a5 50be
00000280: 1c73 c8be f6b8 e4be f6a1 3abe b78f e5bd
00000290: ab24 9dbd bddf 09bc d9cf 943e 3ce1 cd3e
000002a0: 7c73 9f3e 9010 223d 6550 30bd 53d7 763e
000002b0: b125 273e 2b1a c13d d52f 503c 9394 41be
000002c0: 02d1 a1bd 0e5f 053e e0e2 803e 9d79 843e
000002d0: 9327 2b3e c8d5 953e 5735 c13e c2e3 b73e
000002e0: bd21 4c3e 2603 9b3e fc71 743e 86fa 153e
000002f0: 745e 313d 9cc8 46be 5a93 713e db72 95bd
00000300: d843 ecbd 9491 77be 8490 82be e4fe 05bd
00000310: d29b 8ebe 87d6 57be 5c78 753d 310a 1abd
00000320: 6a8a ae3c ce7f f2bb 5e42 cc3d 288d 22bd
00000330: fc5e d4bd 88ca 80bc d91e 64bd e111 14be
00000340: 533c 8dbe 1a95 94be 1547 81bb 1ba9 64be
00000350: a2d0 babe 291d 46be 87e5 8dbe d606 ddbd
00000360: 3cce 97bd 339f 3e3d d423 5b3d 3d64 89bd
00000370: ae9d f13c 2a74 8e3d 51a6 bb3d c4c6 93bd
00000380: e40b bbbd e30f 1ebe 56cb 0dbb c139 d03d
00000390: 77bc 593e ef38 f93d ef3f 133e 18d4 8a3e
000003a0: 19cc ab3e 682a 733e 9bf0 1b3e b264 8a3e
000003b0: 487d 973e e003 883e 84f3 923d 0bf2 e63d
000003c0: 8b79 4abd c908 78be ac39 87be 18a6 6dbe
000003d0: c43f 77be cdf7 93be 321e 91be ba13 3dbe
000003e0: 9791 a8bd da5d 02be d5ba 05bc 9eb1 6b3d
000003f0: e85d 80bd ca80 d3bd 8d82 bb3b b219 003c
0.16729072 0.11725755 0.06648761 0.057729583 -0.08684833 0.03613106 -0.1211774 0.04218367
0.09795993 -0.21997067 0.16694011 0.15102088 -0.013131818 -0.10426869 -0.36190403 0.36555606
0.2050867 0.13932587 -0.08277567 -0.33336607 0.1407295 -0.052352957 -0.15587442 -0.32535198
-0.5865104 0.05109043 0.11256426 0.09674822 -0.0056918436 -0.11832423 0.16721189 0.24762379
0.09997356 -0.12925634 -0.12770462 0.20172514 0.3514882 0.15400559 -0.33531064 -0.42636192
0.17594177 0.10178424 -0.061119042 -0.44771075 -0.5257139 -0.07179092 0.1002001 0.12967242
-0.30982876 -0.5151762 0.09981262 0.09580901 0.17082255 0.225259 0.07098973 -0.019718237
0.087729454 0.0028760156 0.0986358 0.1354462 -0.01656207 -0.05571774 -0.06360951 0.060734957
0.23092397 -0.13612522 0.1425769 0.13939969 0.05405063 0.19670792 -0.08342779 0.007050392
0.11597616 0.03510175 0.12637056 -0.13657328 -0.052244544 0.062397316 0.1373092 0.15233083
-0.107486874 -0.14179805 -0.033453386 0.035858493 0.15161215 -0.14302014 -0.14212927 -0.17284453
0.03227441 0.2940888 -0.21711715 -0.30321962 -0.24842608 -0.06320884 0.21037765 -0.2846304
-0.066105746 -0.02622495 0.08555279 0.36021608 -0.0018747788 -0.009639748 -0.071692795 0.014743176
-0.05329114 0.008717833 0.12301079 0.07688185 -0.056166578 -0.1196567 0.04003608 -0.06430354
0.08455663 0.038153194 -0.25119495 0.043517984 -0.051832758 -0.061238747 -0.06397334 -0.14188564
0.05896813 -0.1307228 -0.112334035 -0.1234464 -0.20023015 -0.1115329 -0.07713314 -0.08655678
-0.068250276 -0.0037433156 0.113106616 0.24691889 0.12056483 0.0045234472 -0.041660298 0.18083045
0.12394466 0.16412383 0.19484024 -0.025103303 0.17789881 0.021443129 -0.07605502 0.11892489
0.030999517 0.11381189 0.16055027 0.16578375 0.07755881 0.02675354 0.26621732 0.07889155
-0.12595712 -0.17938149 0.0022203592 -0.2176653 -0.435069 -0.68282336 -0.43113935 -0.20375812
-0.3915032 -0.44672364 -0.18225846 -0.11209052 -0.076730095 -0.00841516 0.29064825 0.40210903
0.31142795 0.039566576 -0.04304542 0.24105577 0.16322972 0.09428819 0.012706717 -0.18904333
-0.07901193 0.13024542 0.25173092 0.25874034 0.16714315 0.29264665 0.37736008 0.35915953
0.19934745 0.3027584 0.23871607 0.14646348 0.04330297 -0.19412464 0.23591366 -0.072972976
-0.11536378 -0.24176627 -0.25500882 -0.032713786 -0.27853256 -0.2107793 0.059929237 -0.037607376
0.021306235 -0.0074004894 0.09973596 -0.0396854 -0.10369679 -0.015721574 -0.05569348 -0.14459945
-0.27585086 -0.29020005 -0.003945241 -0.22330134 -0.364873 -0.19347061 -0.27714178 -0.107923195
-0.07412383 0.046538543 0.053500965 -0.06708572 0.029494133 0.0695575 0.09162582 -0.07215646
-0.09133127 -0.15435748 -0.002163609 0.10167266 0.212633 0.12169062 0.14379857 0.2711494
0.33554152 0.23746645 0.15228502 0.2702995 0.2958777 0.26565456 0.07175353 0.11276635
-0.04943232 -0.24222101 -0.26411188 -0.23207891 -0.24145418 -0.28899994 -0.2834335 -0.18464556
-0.08230894 -0.12731114 -0.00816222 0.057542436 -0.06267911 -0.10327299 0.00572235 0.007818626

LeNet.3.bias f4 [16]
00000000: 70e6 c7be ad74 dabd 1716 c93d 3e93 9fbe
00000010: 7db6 513d 73b8 d93d 19cf 23be 19f8 27bd
00000020: 20c8 cdbe 20f0 d1bd ada1 8abe d047 82be
00000030: c8fa 04be 9924 60be 8682 5cbd 0e15 9ebd
-0.39042997 -0.106667854 0.098186664 -0.31167024 0.051199425 0.10630884 -0.1599697 -0.04100809
-0.40191746 -0.10250878 -0.27076474 -0.25445414 -0.1298629 -0.21888961 -0.053835414 -0.077188596

LeNet.6.weight f4 [120, 16, 5, 5]
00000000: a76a 453e 039b 853d 4d9c fc3c a8f5 a6bd
00000010: 5dee 0a3e 8329 b83d 659d c23c 3e62 84bb
00000020: ae4d e93a 17c5 673d 1ae8 173d 215a e3bc
00000030: 341d 683d 4395 7ebc 9110 d13e 6469 cabd
00000040: 9360 91bd 9adc 2abe 414f e7bd b588 ca3e
00000050: 2fd9 03bd ef7d debd 498e d3be fb0e 6cbe
00000060: 1916 cdbd 4662 33be 2108 06be f683 f9bd
00000070: e707 63be 974a 34be bccd 12be a470 d33d
00000080: 370b 853d b3b9 70bd 8b1d 34be 097c 96bd
00000090: 1303 0c3e 255b 31be 0c2c 3abe ac0f b5be
000000a0: d004 aebd 3698 c6bd 57b9 aabd f7ca 86bd
000000b0: 836c ebbb 0e41 7dbc ac7d 70bd 466b a0be
000000c0: 4f95 60be 2515 0f3e bbd4 533d 7015 93bc
000000d0: 0948 06bd e659 c93d 62d5 e03d 4255 25bd
000000e0: 3d16 2fbe e383 41bc 247e efbd 6841 ddbd
000000f0: 01c4 a93d a437 3e3d 29e5 c03d 6a9b dbbc
00000100: db51 413e 2ea8 313e 1829 a8bc 19b6 debd
00000110: 273c 3abe ee3d 823e b911 14bd a2a3 3fbe
00000120: 4d58 c3bd efe6 42be 8225 adbd 5597 a4bd
00000130: 9f25 353d cd31 b63c 9597 403c d5aa d53a
00000140: a5de c1bd 64ac 9fbc 5c78 cabd 9608 80be
00000150: 881c 1bbe f969 f5bc bb1b a73d 9fd3 b43d
00000160: 1943 d13c 78d4 b3bb 0c6f 823c 7713 d0bc
00000170: 4788 e0bd 4271 18bd c099 043e 38f2 08bd
00000180: ee19 48be 278e 10be f0ff 32bc 6434 36be
00000190: 25ad 2d3d e224 94bd 25b4 053e d77c 3abe
000001a0: 2901 96bb 6630 923d c658 c5bd 5e77 0c3d
000001b0: b816 b43c 79f9 5fbe 1358 9f3c 8ecd b43d
000001c0: 3963 cd3d 0f4c de3d 13cb cbbd fe36 053d
000001d0: 8ac5 b83c 67e5 e43b ac84 7abc 19b2 7b3e
000001e0: 738b 08be 31be 8cbc e23a 15bd ca62 ec3c
000001f0: 0e6e 083e f28d 813d 7579 c03c 9f7c 37bd
00000200: 75f9 13bd dcdd ddbd 61c1 b33d efae 913d
00000210: f6ba cb3d 4a1b be3d 34b5 6d3d 2afc 8e3d
00000220: 073e 5ebd 8362 01be 046b 75bd bcd1 bd3d
00000230: aa78 afbd 9f96 31be f5a6 81bd 9fff 27be
00000240: 9c55 aa3d baac 8bbe 19c9 77bd 81d9 6b3e
00000250: 5743 4d3e c648 453e a55f 7e3e aec9 823e
00000260: 8441 173e 3ae8 333d a75c 4dbe f0d3 3f3e
00000270: 43d6 0d3e 41e9 c6bd a267 1e3d 4542 93bd
00000280: 32a3 9c3c 5404 d63d bc93 80be d4f4 4abe
00000290: 12e5 d8bc e8e3 8b3d e6be 853d 51c3 83bd
000002a0: f0f1 c9bd e3c6 5d3c 216f 913c 93fd 233e
000002b0: 20e6 53bd 34d6 4cbd 6f84 2fbd 2ee8 143d
000002c0: 3400 60bd 87b6 27be 4a10 0fbd 1a44 c3bd
000002d0: deaf f3bd df19 633d cb67 aebd 69d5 653c
000002e0: b587 1e3e d196 bc3d 90df 87bd f561 dd3b
000002f0: a693 e93d 2e50 ff3c 2f3c 0fba fcf4 37bd
00000300: 0ecc 8fbd a1e1 ccbd a7e7 fabd 0d5e bb3d
00000310: 0a1a 753d 378c 9ebc 7a04 0abe ab60 96bc
00000320: b4c8 76be 9f30 34be 25d9 c4bd ef98 a73d
00000330: 3bac 6cbe 4798 7cbd e208 3bbd 6174 393d
00000340: e6dc b53d 4e29 223e ad11 9ebd 409e 1abc
00000350: 4e9a c03d a38e e33d 7c5e b73d f51b c0bd
00000360: 0acc 33bb d33c ea3d b27b 923d a024 5bbd
00000370: 40eb 68be 9165 63bd f155 a63d befc 533e
00000380: b08d c63e 564d 84bc e61b 08bd 68c6 7d3d
00000390: f3d5 f7bd 0703 58be 9a33 f03c a5ac ad3d
000003a0: ab19 e03d a9b5 58bd 3941 eabd d3ec 8fbd
000003b0: 654d b83d 487a 143d 8d92 98bd 4558 b3bd
000003c0: 34d7 0b3d 7569 a63b a285 2f3e d563 bdbc
000003d0: f388 d13d ad23 dd3d 515e 423d 3c2d 5e3e
000003e0: 1c16 413e c5e6 ad3e 225d 0a3e 1c4b 633d
000003f0: 89a4 293d 8f1f 8e3e 4007 503d 09ce 893e
0.19278966 0.06523707 0.030836249 -0.08152324 0.13567491 0.08992293 0.023756692 -0.0040400317
0.001779964 0.056584444 0.037086584 -0.027752938 0.056668475 -0.015538516 0.40832952 -0.09883383
-0.07098498 -0.16685715 -0.11294413 0.39557424 -0.032189544 -0.10863864 -0.41319492 -0.2305259
-0.100139804 -0.17517957 -0.13089038 -0.12183373 -0.22170983 -0.17606579 -0.14336294 0.10324219
0.0649628 -0.058770847 -0.17589395 -0.073478766 0.13673048 -0.17319925 -0.18180865 -0.3536352
-0.08497012 -0.09697001 -0.08336132 -0.06581681 -0.0071845665 -0.015457405 -0.0587136 -0.31331843
-0.21931957 0.1397291 0.051716547 -0.017954558 -0.03278354 0.098316 0.109781995 -0.04036451
-0.17098327 -0.011811229 -0.11693981 -0.10803491 0.08289338 0.04643978 0.09418709 -0.026807506
0.18878882 0.17349312 -0.020527408 -0.10874576 -0.18187009 0.25437874 -0.036149714 -0.18714765
-0.095383264 -0.19033407 -0.0845442 -0.08036677 0.04422533 0.022240544 0.01175489 0.0016301522
-0.09466294 -0.019491382 -0.09886238 -0.2500655 -0.15147603 -0.029957758 0.08159586 0.08829426
0.02554469 -0.0054879747 0.015922092 -0.025399907 -0.10963493 -0.037217386 0.12949276 -0.033434123
-0.19541141 -0.14116727 -0.010925278 -0.17793423 0.04240145 -0.07233597 0.13057001 -0.18211685
-0.004577775 0.071381375 -0.09636073 0.034293525 0.02198349 -0.2187251 0.019451177 0.08828269
0.10028691 0.10854351 -0.09950843 0.032523148 0.022555131 0.0069853547 -0.0152904205 0.24579658
-0.13334446 -0.017180534 -0.03643311 0.0288557 0.13323233 0.06325902 0.023495415 -0.044796582
-0.036126573 -0.10833332 0.087771185 0.07113444 0.09947769 0.09282549 0.058034137 0.0698169
-0.054258373 -0.12635235 -0.05991651 0.09268519 -0.08567937 -0.17342614 -0.06330673 -0.16406105
0.0831711 -0.27280217 -0.060494516 0.2303219 0.2004522 0.19266042 0.24841173 0.25544494
0.14771086 0.04392264 -0.20054875 0.18733191 0.13851266 -0.097124584 0.03867305 -0.07190374
0.019120786 0.10450044 -0.25112712 -0.19819957 -0.026476417 0.06830579 0.065305516 -0.06433738
-0.09860599 0.013536188 0.017753186 0.160147 -0.051733136 -0.050008968 -0.042850908 0.036354236
-0.054687694 -0.16378222 -0.034927644 -0.09534474 -0.118987784 0.055444594 -0.08515891 0.014027932
0.15481456 0.092084534 -0.06634438 0.006756062 0.11405115 0.031166162 -0.0005463985 -0.04491137
-0.07021342 -0.10003973 -0.122512154 0.09148798 0.059839286 -0.019353969 -0.1347827 -0.018356642
-0.241 -0.17596672 -0.096117295 0.08183467 -0.23112576 -0.06166866 -0.04566277 0.045277003
0.08880024 0.15836069 -0.07718215 -0.009437144 0.09404431 0.1111119 0.08953568 -0.093803324
-0.002743485 0.114373825 0.07152499 -0.053501725 -0.22745991 -0.055516783 0.08121861 0.20701882
0.38779974 -0.016150158 -0.03322973 0.061956793 -0.121013544 -0.21094905 0.02932148 0.08480195
0.10942396 -0.05290762 -0.114382215 -0.070275925 0.08999137 0.03624943 -0.07449827 -0.087570705
0.03414078 0.0050784894 0.1714082 -0.023118893 0.10231199 0.1079782 0.04745323 0.21696943
0.1885609 0.33965126 0.1351209 0.05549155 0.04141668 0.27758452 0.050788164 0.26915005

LeNet.6.bias f4 [120]
00000000: 4a5b 1dbd f140 363e 89c2 1d3e c79e 47be
00000010: f827 f73d ed8f 40be 5c1e f53b a8ed 4d3d
00000020: b527 c03d e4a9 03bd 593f b83d f296 8e3e
00000030: b226 043e 42cb 19be 7c57 02bd de8a 99bd
00000040: e980 463e bb5f 2c3e ea0f 5b3d 6c18 39be
00000050: e48b 3ebe 6111 933e 460c 6139 ee8e 3d3e
00000060: e5f1 9d3e 82e8 8dbb b9e3 d9bd 31f4 c43d
00000070: 4c04 c73c a837 efbd 5ec3 2a3e 163a 5e3e
00000080: 2631 c03d 570d 7e3e 02c1 803e 8472 51be
00000090: 3b7b 97be dafc 2d3e 2b9b 85bd ffc1 15bd
000000a0: 051b b13c fddf b93d e0a1 0ebd 76db 763e
000000b0: 3c6a fa3d be0d eabd 3cba f93e 4f16 d5bc
000000c0: e4c6 99bd cfa9 2dbd dd28 cb3d d89b 873d
000000d0: 583e 77bc 30ca 183b a7d7 c1bc 3951 313e
000000e0: f44e 5cbe 002e 88bd ddae b0bd 45ed e2bc
000000f0: 1944 2dbe 8bf7 833e 18d2 92bd 15e1 33bd
00000100: fb13 0a3e 8796 a7be 1519 b7bd 342d d8bd
00000110: c939 b53e cefe 27bb a79f c53d d7fb b83e
00000120: 5ab0 043e 1fa2 1abe 3faf 0a3e 3d6b 323e
00000130: 99bd cd3c 1a32 1ebe 134a fd3d f8f1 b03d
00000140: 127d 6ebe da22 84be dc1b a83d ab83 4cbc
00000150: 2277 353e f172 a73c 7c36 78bc dd35 79bc
00000160: c343 65be 371b 973e d57f 843d c9d7 5b3e
00000170: d88b 95bd ee88 13be ff28 66be 241b 99bd
00000180: 6004 1f3d d0fa 883e 884a 33bd bdc0 663e
00000190: d752 3a3e 797d 96be 3487 2b3b 530e 663d
000001a0: 5196 5b3e dee8 92be 65dc dc3d 2ccc cbbd
000001b0: 75af 183d 38fd ca3d 384e 49bd b725 603d
000001c0: 3e8f 093e 8759 bb3c 2fa3 e13d e97b 13bd
000001d0: 20cc 763e 2c67 a93e 424d 933e 3033 a63d
-0.03841714 0.1779821 0.1540624 -0.19494162 0.1206817 -0.18804903 0.0074804258 0.050275475
0.093825735 -0.032144442 0.089964576 0.27849537 0.12905386 -0.15018943 -0.031821713 -0.0749719
0.19385113 0.16833393 0.053481974 -0.18075722 -0.18608052 0.28724197 0.00021462244 0.18511555
0.30848613 -0.0043306956 -0.10639138 0.09616888 0.024294041 -0.116805375 0.16676089 0.21701846
0.09384374 0.24809776 0.25147253 -0.2045384 -0.29586205 0.16990986 -0.065237366 -0.036561962
0.02161933 0.090759255 -0.034822345 0.24107155 0.12227294 -0.11428402 0.48774898 -0.026011614
-0.075086385 -0.04239827 0.099199034 0.06621522 -0.0150905475 0.0023313873 -0.023662401 0.1731614
-0.21514493 -0.06649399 -0.086271025 -0.02770103 -0.16920508 0.25774798 -0.071689785 -0.043915827
0.13484184 -0.3273203 -0.08940331 -0.10555497 0.3539565 -0.0025634053 0.09649592 0.3612964
0.12957898 -0.15100907 0.13543414 0.1742372 0.025114821 -0.154488 0.12367644 0.08639902
-0.23289898 -0.2580784 0.08208439 -0.012482564 0.17721227 0.02044055 -0.015149709 -0.015210596
-0.2238913 0.2951295 0.064696945 0.21469034 -0.07302064 -0.14407703 -0.22476576 -0.0747588
0.03882253 0.26753855 -0.04377225 0.22534461 0.18195663 -0.29392603 0.0026173117 0.056166004
0.2144406 -0.2869329 0.107842244 -0.09951052 0.037276704 0.09911579 -0.04914686 0.054723468
0.13433549 0.022869838 0.11017453 -0.03600684 0.24101305 0.33086526 0.2876988 0.08115232

LeNet.9.weight f4 [48, 120]
00000000: df1f 8d3e 5e6d c0bd 8aab 91bd f4d1 513d
00000010: 334f 8f3d edf0 0ebd 1713 c5bd 1d81 473d
00000020: d7e9 49be 93b1 75be 3959 f8bd 20d1 813e
00000030: 5521 b9bd 8db4 933c d985 25be 01f4 84be
00000040: ec22 ac3e 512d 463e b103 8fbe 4719 9abd
00000050: 2358 74be c589 5cbd c9a8 9fbd 8d12 31be
00000060: bb22 29be 4b2b 3d3e 395d 71bc 6ff7 da3c
00000070: 038b 8a3a 9446 ff3d a38a 293d 4254 2abe
00000080: 2f92 e23c 0f51 42bd deee 443d 651f 043e
00000090: e046 8b3d 8e20 81be 8349 b4be 17df 403e
000000a0: a7b3 b83e 71e0 babc 6607 803d 5939 b43d
000000b0: b2a4 663e f834 58be dbab 4d3e d96e 893e
000000c0: c53c 2c3e 85ad e43d d23e 2d3e f33a 2abe
000000d0: d8b3 493e e676 c53d 0ceb 113e a0f2 253e
000000e0: ff4b ab3d d7a8 173e 15e3 86be 011d 0fbe
000000f0: 0927 5e3e 1499 c23c c262 d8bd 7e98 183c
00000100: 1ed3 973c ee19 d2bd f2bb 4f3d 0d06 e6bc
00000110: 688e 873e f80e 1dbe c0b5 113e 89e3 0e3f
00000120: a3b6 843c 09d6 66be 2fa7 f7bd 73d8 13be
00000130: 59cc 563e bb6b 343d 1cac 093e 536b da3d
00000140: 6b2a b3bb 8f92 53be 99ae de3d e40f be3e
00000150: 8757 50be e89f 74bd 434c ff3d ef97 cabd
00000160: 9e6b 893e 66a2 4d3e 06cc dbbc 7b77 993e
00000170: 8196 e03d 9ee0 8a3d c753 6bbe 5716 863e
00000180: bab9 6abe eb6a 5ebd d65f 74bd ce0a 2dbe
00000190: c50a 96bd f4ad 81be 9b4b 0f3e 25cc 10bf
000001a0: f301 953e 76fd 003e 2cc6 81bc 6feb f43d
000001b0: f81d c33e 8dd9 32bd ba79 643d d59f 52be
000001c0: 9f74 5abe 79e5 643e cb25 cc3d d1db 813b
000001d0: 1300 a4be 9161 a33d c73c 053d 8795 dc3d
000001e0: 6149 173e 56ef 843d 784e 61be 89a5 e3bd
000001f0: 91f7 703e f6a9 ab3c 0637 97bd 9e8c c53d
00000200: 7499 843e 1ab0 db3d 4ab8 debc ec4d c9bd
00000210: 8b82 043e 4455 57ba 0c0b 1b3e fb61 8b3e
00000220: 82fe f2be 296a 8c3d 8132 0b3b 2b3d 4abe
00000230: f88a 353d e6a1 453e 0045 bebd c781 3abe
00000240: 80ca a53c 4af9 a23d 2ca3 b1be 4988 c5bb
00000250: 85e6 c6bd 608a 2bbd a2e1 b8bc 3bba 9dbb
00000260: 7646 8abe 7bbd 55be bd9a cf3d 892f 253c
00000270: 44cb f7bd 0869 21bc 6b99 5d3e 7fcf 3dbc
00000280: 01ea 003e b8b3 0ebe 3f58 92be ee7c 83bd
00000290: 0ec5 903e 1a53 493c 6371 07be 3212 393e
000002a0: eb80 073e e439 033e 5956 873d 94bb 423e
000002b0: 78bc 203d 3970 833e f1b9 abbd db1f 86be
000002c0: 9085 b53e 3047 0ebe cca6 a4bd ebec c43b
000002d0: d546 943d d700 2cbe 55c5 973d de81 41be
000002e0: 046f c43d ac3b 77bc 82ad 233e 7aae 353d
000002f0: 375b 75bd 07af 32bc f36d 9abe beb8 a6be
00000300: 33d2 86be 4950 debd 849b 873d 9b96 4e3e
00000310: 9ac1 d83d 588a 6c3e e29f 9bbc 1909 eabd
00000320: 4c1c a53d aad0 9c3e 928e 0f3d 7367 80bd
00000330: 7705 b0bd a658 aa3e 305f c73d 9467 973e
00000340: e0bd d83e 5eb6 12be 3212 febd 972e 7cbe
00000350: e9e9 c9bc f3e8 41bd bddb 233e 2626 3dbe
00000360: fb2e 9b3d b6df 92be af57 3f3e f818 fabd
00000370: 8100 84be 7477 943e 71a4 c0ba b95a 5b3e
00000380: c8fe 5bbe 3a57 a2bd 8a70 1c3d b072 493d
00000390: e229 82be b279 1c3d 0780 f33d 9736 4b3b
000003a0: ac8d ae3e c332 99be 0fb7 59be d0c3 9a3d
000003b0: 9cdd 573e c608 b8be 978b 483e 6ecb 9cbe
000003c0: 03c5 0e3e 0324 cd3c a508 9e3e 58e8 b4bc
000003d0: 3e96 2ebe 57a2 debd 7f92 33be 367a 62be
000003e0: 7741 b7bd 57ea 7cbd 7828 1abd 2cdc 9f3d
000003f0: 0d3c 8b3e 38bd e6bd 59e0 263e 0981 e23d
0.27563378 -0.0939586 -0.071127966 0.051225618 0.06997528 -0.034897733 -0.09622782 0.048707116
-0.19718109 -0.2399352 -0.12126393 0.25354862 -0.09039561 0.01803043 -0.1616434 -0.2596741
0.33620393 0.19353224 -0.27932504 -0.075243525 -0.23861746 -0.053842325 -0.07795865 -0.17292233
-0.16517155 0.18473546 -0.014731699 0.026729314 0.0010569993 0.124646336 0.04139198 -0.16633704
0.027657596 -0.047440585 0.048079364 0.12902601 0.06800628 -0.2522015 -0.35212335 0.18835102
0.36074564 -0.0228121 0.06251411 0.08800001 0.22523764 -0.21113956 0.20085089 0.26842383
0.16820057 0.11165909 0.16918495 -0.1662405 0.19697511 0.09641819 0.1424982 0.16205835
0.083641045 0.14810501 -0.26345125 -0.13975908 0.21694578 0.023754634 -0.105657116 0.009313701
0.018533286 -0.10258852 0.050716348 -0.028079057 0.26475835 -0.15337741 0.14229488 0.5581594
0.01620037 -0.22542585 -0.120924346 -0.14438038 0.2097639 0.044048052 0.13444561 0.10665002
-0.005467703 -0.20661376 0.108731456 0.371215 -0.20345889 -0.05972281 0.12465718 -0.0989226
0.26839918 0.20081481 -0.026830684 0.2997397 0.10966206 0.067811236 -0.22981177 0.2618892
-0.22922412 -0.054301184 -0.05966171 -0.16898653 -0.07326273 -0.25328028 0.13993685 -0.565615
0.2910305 0.12596688 -0.015841566 0.11958968 0.38108802 -0.043664504 0.05578015 -0.20568784
-0.2133355 0.22353162 0.09968146 0.0039629717 -0.32031307 0.07977594 0.032528665 0.107707076
0.14774086 0.06490962 -0.2200259 -0.11115558 0.23531939 0.020955067 -0.07383542 0.09645961
0.25898325 0.10726948 -0.027187485 -0.098293155 0.12940423 -0.00082143047 0.15140933 0.2722319
-0.474598 0.06856186 0.002123982 -0.19749896 0.044321984 0.1930004 -0.092905045 -0.18213569
0.020238161 0.07957704 -0.34694803 -0.0060282093 -0.09711937 -0.04188001 -0.022568528 -0.00481346
-0.27006882 -0.20873062 0.10136936 0.010082134 -0.12099317 -0.009851702 0.21640556 -0.011585115
0.12589265 -0.13935745 -0.2858295 -0.06420313 0.2827534 0.012287879 -0.13226847 0.18073347
0.13232772 0.12815052 0.066082664 0.19016868 0.039242238 0.25671557 -0.08385075 -0.2619618
0.35453463 -0.13894343 -0.080396265 0.006009688 0.07240073 -0.16797195 0.07410685 -0.18897197
0.09591487 -0.0150899105 0.15984157 0.044355847 -0.059901442 -0.010905988 -0.3016201 -0.32562822
-0.26332244 -0.10855157 0.06621459 0.20174639 0.105838016 0.23099649 -0.018997137 -0.114275165
0.08062038 0.30627948 0.035048075 -0.062697314 -0.08594792 0.33270758 0.097349524 0.2957121
0.42332363 -0.1432738 -0.12405814 -0.24627148 -0.02464767 -0.0473413 0.16001792 -0.18471584
0.0757732 -0.28686303 0.18685792 -0.12211794 -0.25781634 0.28997386 -0.0014697445 0.21421327
-0.2148391 -0.079267934 0.038193263 0.04918164 -0.2542258 0.038201995 0.11889654 0.003100788
0.34092462 -0.2992154 -0.21261238 0.075568795 0.21080631 -0.35944194 0.195845 -0.30623955
0.13942342 0.025041586 0.3086597 -0.022083446 -0.170495 -0.108708076 -0.17536353 -0.22116932
-0.08948033 -0.06174692 -0.03763625 0.07805666 0.27194253 -0.11266559 0.1629652 0.11059768

LeNet.9.bias f4 [48]
00000000: 7a2b 3d3e 3dfb 27be 7a84 ecbd 0eb1 163e
00000010: 4206 3b3d 9fbe 42be 0407 72be 3d65 a2bd
00000020: 18ee 21be cc33 44be d862 3fbe 44a5 0d3e
00000030: 69b3 833e c58c ab3c 64f2 f4bd 043a 1e3e
00000040: e8ff e1bd e55d 0abe bc8d 84be bf5b 74bc
00000050: 6c52 82be bd5d 7d3e b9c4 a6bd ba74 8dbd
00000060: 8de1 333e 8403 48be cf50 3f3e 3f10 353e
00000070: ade6 a6bc c283 08bf 38ac 533d e0de c83d
00000080: f80b fe3d 3c16 82be 89dc 7d3e 8380 a1bd
00000090: 49a0 41be a0ac 363e 4f44 91bd 58b5 00bd
000000a0: 4fab c53e 8faf 453d 7f26 c63d 32d7 03be
000000b0: 6065 0cbe 6e53 303d c927 26be 42c4 53be
0.18473616 -0.16404434 -0.115487054 0.14715979 0.045660265 -0.19018029 -0.23635489 -0.07929466
-0.15813482 -0.19160384 -0.1869005 0.13832575 0.25722817 0.020941148 -0.11960295 0.15451819
-0.11035138 -0.1351238 -0.25889385 -0.014914452 -0.25453508 0.2474279 -0.081429906 -0.069070294
0.1756651 -0.19532591 0.1868317 0.17681979 -0.020373667 -0.53326046 0.051677912 0.09808135
0.124046266 -0.25407588 0.24791159 -0.0788584 -0.189088 0.17839289 -0.07093107 -0.031422943
0.3860726 0.04826313 0.09675311 -0.12875059 -0.13710546 0.043048315 -0.16226114 -0.20680335

LeNet.11.weight f4 [10, 48]
00000000: 64a3 e43e 3575 e8be c19b 163c 8d2a 313e
00000010: 28a3 d03e 42ab cbbd c073 75be 7029 87be
00000020: d750 063d 1573 7f3d 9194 0bbf f434 96be
00000030: af00 843d 496d 273f 0058 fcbd 66f3 23bf
00000040: 991c c13e 3b21 f03c 6ffd 8ebb 2d3a c03e
00000050: e2bf 9a3e ffdf f93e 3adc de3e 0fdb 32be
00000060: 5537 2c3e 19f1 ae3e b1b7 843e 1154 0fbf
00000070: 76e0 a9be 1bc5 65be 5b54 90be d0d8 513d
00000080: c206 f83e f196 02bd 1428 d7be 0165 35bf
00000090: 5227 ccbe 7809 533d 098f fcbe 4ebd 2c3e
000000a0: fe01 473f 59d8 1dbf af9d 013d a312 b2be
000000b0: 9a47 89be bd26 5e3e c596 12be f3f9 873e
000000c0: b78c 9e3e 2c9b dfbc 4443 77be 85b4 ec3e
000000d0: 771a 823e 0cca 32be 9d5e 15be fd07 11bf
000000e0: 5078 1abf 1337 91be f1a7 83be 5ca6 dd3e
000000f0: a4fe a23e edc1 873d 9aba ea3e 71e2 c73e
00000100: bc00 393d c4fc 033f 4f39 0d3e ba16 0cbe
00000110: 226a cfbe 7954 13be f5e0 4fbd 7130 23bb
00000120: a0f7 003f c01b 0e3d 6e48 01bf dc70 66be
00000130: e0be dc3d da69 b2be cb1b bd3e 5925 a2be
00000140: 408a e43e d81a 1cbf 79a0 663f f470 8dbd
00000150: 7ab1 71be e2a1 b73e c55e debe 2f09 b83e
00000160: f7df e03e df30 0c3e e169 063e d820 f43e
00000170: 77fa 71bf 2680 1c3f 3d72 0fbf 7bb3 59bf
00000180: 67bd 283e 1b4c c5be 86c1 12be a877 373e
00000190: a5a5 72be 2db5 3ebf b2df 563e d19a 9b3e
000001a0: b2a9 d33c e909 17bc d716 e83e ce76 c43c
000001b0: e827 e03e 710d 393f 20f9 c0be b607 07be
000001c0: c37b 8d3e c7cf a0be 2364 21be 73de b33e
000001d0: d487 e0bc 4196 023f 7553 b4be 6bac e0bc
000001e0: 9556 73be 47d1 e43e 91a5 143f 0bc1 ac3e
000001f0: caaf 2abe ee6e dabe 6d02 1e3d 1950 7abe
00000200: 57f2 30be c094 903e 02fb 433e 2766 e93d
00000210: e8e7 0ebe 53c8 33bf 88ab 143e 8468 b0be
00000220: a564 c2bd 6570 c2bd d341 6a3e b8bf 67be
00000230: e7b9 9e3e 3d99 e5be 7cd1 d33e a59e 87be
00000240: 1285 a6be c98e d33e 4698 f4bd 6ddb e33d
00000250: 8162 51bd 338e 273e 97a1 2cbe af48 723e
00000260: 201e 23be 66f6 70be 01b9 da3e 0638 0cbe
00000270: f9d0 a7be 977a 26be b7fc 04bf bb20 683e
00000280: f818 33bf 4c3c e9bd d5b8 89be 661b 89be
00000290: 56f9 ec3d 6ee1 9ebd f1a7 963d 37ee 3b3d
000002a0: f241 78be 77f7 d0be 5f39 7dbe 7ab8 0e3f
000002b0: 2da6 f0bd a409 e43d 665b 0fbe 05bd 9c3e
000002c0: db12 fcbe 8869 ac3e 2702 dbbe 4f55 383e
000002d0: 7084 633e 4974 703e fcc2 c33d ca89 3cbe
000002e0: 58d7 1a3e e2be ea3d 23dc a23e a20f cf3d
000002f0: 7af7 bfbd 1e95 0bbe 0851 58be 9288 ef3d
00000300: 09c3 81bd 7834 92be ffba a3be a5d9 83be
00000310: 4911 debe 1f46 933e 7c19 193f 4dfb 66be
00000320: 7f6b 0bbe 5570 333f ce8c 273e 0702 40bf
00000330: 9f42 afbe 7691 d1bc 44d0 713e 64fa a1bd
00000340: 3238 ba3e 472c c03d 0040 943e 6f75 aa3e
00000350: 3507 82be a6e9 433e 5853 05bf b084 29bf
00000360: 28a0 8abe 8d13 01ba 368c cbbe 8fb9 893d
00000370: c283 173c ef12 a83e 8b2f bdbe 53d4 a4bd
00000380: cc55 913c c163 933d 71d6 1cbe bde3 7e3e
00000390: 4df5 b1be 1223 03be 79e0 013f 874f 96bd
000003a0: ad50 31be af81 86be 4007 93be aa3c 473e
000003b0: 0afb a13d af6f 55be c2be 513e 1f62 aa3e
000003c0: f8e8 04bf 571e f93e 1449 0a3f a77c 923e
000003d0: ffc2 cdbe fded 8c3e 9edb 6e3d 12e3 343e
000003e0: ba7c 1bbe 691f fabe 0b65 96be 0bb0 133c
000003f0: e620 1cbe 71fe 30bf 19e8 febe 83ab de3e
0.44655907 -0.45401922 0.009192408 0.17301388 0.40749478 -0.09944774 -0.23969936 -0.26398802
0.03279194 0.06236561 -0.5452357 -0.29337275 0.06445443 0.6540113 -0.12321472 -0.6404327
0.3771713 0.02931272 -0.0043637077 0.37544385 0.3022452 0.48803708 0.43527395 -0.17466377
0.16817982 0.34168318 0.25921395 -0.5598765 -0.33179063 -0.22438471 -0.28189358 0.05123216
0.48442656 -0.03188223 -0.42022765 -0.70857245 -0.3987375 0.051522702 -0.49327877 0.16869089
0.77737415 -0.61658245 0.03164452 -0.34779844 -0.2681244 0.21694465 -0.14315327 0.26557884
0.30966732 -0.027295671 -0.24146754 0.46231475 0.25410816 -0.17459887 -0.14586873 -0.56652814
-0.6033983 -0.2836233 -0.25714067 0.43290985 0.318349 0.06628785 0.4584549 0.3903995
0.045166716 0.51557565 0.13791393 -0.13680544 -0.4051066 -0.14387693 -0.050751645 -0.00249007
0.50377846 0.034694433 -0.50501144 -0.2250399 0.10778594 -0.34846383 0.36935267 -0.3166912
0.44636726 -0.6097846 0.9008861 -0.0690631 -0.23602858 0.35865694 -0.43431678 0.35944507
0.43920872 0.13690518 0.13126327 0.47681308 -0.94522804 0.6113304 -0.5603369 -0.8503949
0.16478501 -0.38534626 -0.14331636 0.17916739 -0.23696001 -0.744952 0.2098377 0.30391553
0.025837753 -0.009218671 0.45329925 0.023982432 0.43780446 0.72286135 -0.37690067 -0.13186535
0.27633485 -0.31408522 -0.15760855 0.35130653 -0.027408518 0.5101052 -0.35219923 -0.027425965
-0.23763497 0.44690916 0.58065134 0.3374103 -0.1666862 -0.42662758 0.038576532 -0.24444617
-0.17279945 0.28238487 0.1913872 0.11396437 -0.13955653 -0.70227545 0.14518559 -0.3445474
-0.09491853 -0.09494094 0.22876672 -0.22631729 0.31001207 -0.44843474 0.4137076 -0.26488224
-0.325234 0.41319874 -0.11943106 0.111258365 -0.05111933 0.16362838 -0.16858517 0.23660539
-0.1592946 -0.23531494 0.42719272 -0.13693246 -0.3277662 -0.16257702 -0.5194811 0.22668736
-0.69959974 -0.11388454 -0.26898828 -0.26778716 0.115709946 -0.07757841 0.07356251 0.045881476
-0.24243906 -0.408138 -0.24728917 0.5575024 -0.117504455 0.11134651 -0.1399971 0.3061296
-0.49233136 0.33674264 -0.4277508 0.18001293 0.2221849 0.2348186 0.09558675 -0.18411937
0.1512121 0.11462189 0.31808576 0.101104036 -0.09373374 -0.13631102 -0.21124661 0.116959706
-0.06336028 -0.28555655 -0.31978604 -0.25751987 -0.43372563 0.28764436 0.5980451 -0.22556801
-0.13615225 0.7009328 0.16362306 -0.75003093 -0.34230515 -0.025582056 0.23614603 -0.07909086
0.36371 0.09383445 0.28955078 0.3329272 -0.25396124 0.19132099 -0.520803 -0.6621809
-0.27075315 -0.0004923873 -0.3975541 0.067248456 0.009247722 0.32826945 -0.36950335 -0.0804831
0.017741106 0.07196761 -0.15316178 0.24891563 -0.34757462 -0.12806347 0.50733143 -0.073393874
-0.17315932 -0.26270816 -0.2871647 0.19456735 0.0790921 -0.20843385 0.20482925 0.33277985
-0.5191798 0.4865596 0.5401776 0.28610727 -0.40187833 0.2752532 0.058314912 0.17664745
-0.15184298 -0.4885209 -0.29373965 0.00901414 -0.15246925 -0.69138247 -0.4978645 0.43490228

LeNet.11.bias f4 [10]
00000000: 5978 513e 1563 b43e 6541 943c cf19 f43d
00000010: 3311 24be 5ceb 203d 4c40 adbe 1d43 8dbe
00000020: 5828 343d db2f b0bc
0.20456065 0.35231844 0.018097589 0.11918985 -0.16022186 0.039286956 -0.33838117 -0.27590266
0.043983787 -0.021507194

exp_avg f4 [6, 3, 5, 5]
00000000: f657 14bc 5f61 04bc 88c4 d2bb a4d7 a2bb
00000010: 21ea 93bb 9194 09bc 9b4f f2bb 4be2 b5bb
00000020: 4417 70bb 9377 36bb b1c8 ecbb ce77 e7bb
00000030: 030e babb b538 80bb dcd7 2cbb 62fd a4bb
00000040: 829e b8bb f72b 9abb 4d76 5dbb 77d7 efba
00000050: facc 49bb 571f 6fbb 11be 2cbb 7b6a b3ba
00000060: 5908 8d39 08af 60bb 4de8 23bb 0383 a2ba
00000070: a9a9 6639 f1a3 773a fe64 86bb 4006 51bb
00000080: 57c0 e8ba e194 c938 6f7f a83a 5e6a 71bb
00000090: dde3 6fbb c7b4 35bb febc 78ba dd6e 3b3a
000000a0: 668b 1abb 0566 54bb 7a01 3bbb 1af4 aaba
000000b0: 6f3e 4b3a ea6b beba a2a8 20bb 5bdb 02bb
000000c0: 6a65 d5b9 45da fa3a 1956 adbb 6c75 6cbb
000000d0: 3535 d9ba f912 9439 4537 aa3a 87c3 a0bb
000000e0: 154c 51bb 2043 9bba 96ad 803a 5180 143b
000000f0: 13da 6cbb a519 37bb 5acf bfba d8e8 023a
00000100: b091 0d3b d941 7bba 1477 89ba da5f c6b9
00000110: 052c 973a 6121 4a3b db37 563a c4ee 073a
00000120: 8252 8f3a 425b 243b c030 973b eb56 863d
00000130: 1e85 813d 8bcc 803d 398c 823d 72b3 863d
00000140: 2ebb 783d dab8 703d 22bb 6e3d dc9b 723d
00000150: f371 7d3d 9d8b 753d 1ed8 6e3d 6fa5 6b3d
00000160: 77ae 6d3d 6bcb 773d e379 803d f3b8 7c3d
00000170: d2fe 783d 7710 793d 616e 803d fe4e 893d
00000180: e18a 873d a892 843d 0ebe 823d 8208 853d
00000190: 9c64 7a3d 2348 6f3d 5228 6d3d 34ec 703d
000001a0: ce0c 783d 12b0 663d 0467 5e3d d2ae 5c3d
000001b0: ed84 613d ec53 6b3d b659 633d afc4 5c3d
000001c0: 3052 5a3d 8519 5e3d e6b5 673d 85e6 6a3d
000001d0: 204a 663d ef46 633d 3ab5 653d 1bfa 6d3d
000001e0: 648c 763d 8055 713d ff39 6b3d edf0 693d
000001f0: bac0 6f3d 66cf 503d 4ae3 4a3d 942a 4c3d
00000200: 5c75 513d 5545 573d b62e 483d 513f 453d
00000210: 27eb 463d 41b5 4c3d f7f6 533d 779d 4f3d
00000220: 56c8 4d3d 0c26 4e3d 4733 523d 7c4c 583d
00000230: b830 613d fa00 603d 915e 5e3d 072f 603d
00000240: 9d8e 643d 6af0 733d 4873 703d fbe3 693d
00000250: 92b0 663d d85d 683d 4ad0 1b3c 6e56 153c
00000260: 5262 113c 1518 0f3c 6e60 123c c038 263c
00000270: b293 273c 889d 273c 3e50 283c b025 2e3c
00000280: 5fc9 203c bfdb 243c 030a 243c 1d49 283c
00000290: a277 323c 20e6 153c 758f 1b3c 5a81 203c
000002a0: 64ed 263c 0704 343c 5b86 193c f0cb 1e3c
000002b0: 8736 233c 615b 273c 7cc1 333c 233d 1f3c
000002c0: 5b01 1e3c a3b6 1c3c 194f 1a3c 5fc6 1b3c
000002d0: 596c 263c 3baa 2d3c 88c8 303c df5e 323c
000002e0: 57a0 373c d17d 143c 86db 1e3c 31e9 233c
000002f0: 2734 2d3c 3fb9 383c 6885 fa3b 40a5 083c
00000300: f4be 153c 7089 253c 7c3f 363c 0720 013c
00000310: b713 0a3c 60da 163c 3995 253c 1390 363c
00000320: 6fb3 1d3c 4654 2b3c 8634 343c 8552 323c
00000330: 6a47 313c b18c 1b3c 5c48 313c be43 3e3c
00000340: 36f4 3f3c 3da0 413c c2d9 fc3b 4c41 173c
00000350: 5ea3 263c 33f7 2f3c eb3c 373c 078d bf3b
00000360: e078 ec3b cb34 0b3c 8f51 193c 45ed 243c
00000370: ee1c b53b 0151 d53b d988 f93b 3fe5 083c
00000380: 8e44 153c e20d be3d ca1e bf3d b160 ba3d
00000390: 3345 b53d 272c b13d 8400 b03d e49d af3d
000003a0: 3a95 aa3d 726e a53d ebc5 a13d 2976 a63d
000003b0: 130f a53d 45bc 9f3d 07f1 993d 88cf 953d
000003c0: 5a8a 9a3d 0969 983d 91d7 923d 80e6 8c3d
000003d0: e963 883d d4f4 8e3d e20f 8c3d 04da 863d
000003e0: a69f 813d 4e9f 7a3d 30de ac3d b793 ae3d
000003f0: ff0d ab3d 0675 a63d 3add a23d f032 a33d
-0.009054175 -0.008079856 -0.0064321198 -0.004969554 -0.0045139943 -0.008397237 -0.0073947436 -0.005550658
-0.003663496 -0.0027842268 -0.0072260727 -0.0070638424 -0.00567794 -0.00391301 -0.002637378 -0.0050350884
-0.00563413 -0.004704948 -0.0033792437 -0.0018298466 -0.0030792342 -0.0036487186 -0.0026358406 -0.001368835
0.00026899835 -0.0034284014 -0.0025010288 -0.0012398664 0.00021997713 0.00094467314 -0.0041013947 -0.0031894594
-0.0017757517 9.612158e-05 0.0012855361 -0.0036837081 -0.0036604323 -0.002772616 -0.0009488611 0.0007150004
-0.0023581623 -0.0032409441 -0.0028534816 -0.0013042719 0.0007753139 -0.001452801 -0.0024514575 -0.0019967172
-0.00040702085 0.0019138536 -0.0052898047 -0.003608073 -0.0016571643 0.00028242895 0.0012986442 -0.004906121
-0.0031936218 -0.0011845566 0.0009817358 0.002265949 -0.0036140725 -0.002793887 -0.0014633939 0.0004993803
0.002160173 -0.0009584702 -0.0010487759 -0.00037836918 0.0011533505 0.003084265 0.0008171775 0.000518542
0.0010934623 0.0025078808 0.0046139657 0.06559547 0.06324218 0.062890135 0.063744016 0.06577195
0.060725383 0.05877004 0.058283933 0.05923067 0.06187625 0.0599476 0.058311574 0.057530817
0.05802771 0.06049673 0.06273248 0.06169982 0.06078989 0.060806718 0.06271053 0.0670452
0.06618286 0.06473285 0.06383906 0.06495763 0.061131105 0.058418404 0.05789978 0.05881901
0.060559087 0.056320257 0.054297462 0.05387766 0.05505841 0.05745308 0.055505477 0.05389851
0.053301036 0.054223556 0.056569956 0.057348747 0.056223035 0.05548757 0.056081034 0.058099847
0.06019248 0.05891943 0.057428356 0.05711453 0.058533408 0.05097904 0.049533166 0.049845293
0.051137313 0.052556355 0.048872672 0.048156086 0.048564103 0.049977545 0.051749196 0.05068728
0.050239883 0.050329253 0.051318433 0.052807316 0.054978102 0.05468843 0.054289404 0.05473235
0.05580007 0.05955545 0.05870369 0.057102185 0.056320734 0.05673012 0.009510109 0.009114845
0.008873539 0.008733769 0.008934123 0.010145366 0.010228084 0.0102304295 0.0102730375 0.010629103
0.009813636 0.010062157 0.010012153 0.010271338 0.0108927805 0.009149104 0.009494652 0.009796465
0.010188434 0.010987288 0.009370412 0.009692177 0.009961731 0.0102146575 0.010971423 0.009719166
0.009643878 0.009565028 0.009418272 0.009507745 0.010157668 0.010599668 0.010789998 0.010886877
0.011207662 0.0090632 0.009695893 0.010004328 0.010571516 0.011274635 0.007645298 0.00834018
0.009139765 0.010103568 0.011123534 0.007881171 0.008427552 0.009207338 0.010106378 0.011142748
0.0096253 0.010457104 0.010998851 0.010883932 0.010820249 0.009493993 0.0108204745 0.011612831
0.011715939 0.011817989 0.0077163884 0.009231877 0.010170786 0.010740089 0.011183958 0.005845669
0.007216558 0.008496474 0.009357824 0.010066335 0.0055271303 0.0065099006 0.0076151905 0.008355438
0.009110583 0.09279992 0.093320444 0.09100474 0.08851089 0.086509995 0.08593848 0.08575037
0.08329244 0.080777064 0.07899078 0.08128006 0.08059516 0.077995814 0.075166754 0.07314974
0.0754592 0.07441909 0.07170022 0.06879902 0.06659681 0.06980291 0.06838967 0.06584552
0.06329279 0.06118708 0.084408164 0.08524268 0.08352279 0.08127789 0.07952352 0.079687

exp_avg_sq f4 [6, 3, 5, 5]
00000000: 991e eb3b abc6 ee3b 0632 f13b 13fb f13b
00000010: fa68 f13b 27be e83b b877 ec3b 3f19 ef3b
00000020: 600b f03b 878c ef3b dad5 e03b e53f e43b
00000030: 5bd2 e63b 3cae e73b 5817 e73b 884e d73b
00000040: 0833 da3b 108f dc3b e74a dd3b 2a8e dc3b
00000050: 916f cf3b aaba d13b 90db d33b e895 d43b
00000060: 9d3a d43b cc8d da3b 95eb dd3b 67b7 e03b
00000070: c28d e23b 7d95 e33b f4d9 d73b 9f4a db3b
00000080: 8147 de3b e34a e03b 3d56 e13b a6b4 d03b
00000090: 18b8 d33b e277 d63b 2f30 d83b 1fd3 d83b
000000a0: 3ba5 c83b 1917 cb3b 1080 cd3b 0ee6 ce3b
000000b0: 0217 cf3b 669b c23b 8e7f c43b dbaa c63b
000000c0: e9fa c73b 1d6a c83b 0898 c23b 5adc c53b
000000d0: f538 c93b d40c cc3b b335 ce3b dce3 bf3b
000000e0: db76 c33b 4c30 c73b 5c53 ca3b c993 cc3b
000000f0: 6bdb b93b 882c bd3b 96ba c03b db8b c33b
00000100: 7e5c c53b bb4d b33b b026 b63b c051 b93b
00000110: 4eb1 bb3b 59f0 bc3b 4fb6 ae3b b609 b13b
00000120: b9d6 b33b 88e6 b53b f51c b73b 7789 013d
00000130: a98d ff3c f282 fa3c 9874 f53c cd85 f13c
00000140: 47bb fe3c 9892 fa3c 2bdb f43c 8246 ef3c
00000150: 5b2b eb3c d447 fa3c 097b f53c 6f5a ef3c
00000160: c286 e93c d67c e53c 6256 f63c 6930 f13c
00000170: d209 eb3c c160 e53c f2ae e13c 93f7 f33c
00000180: f0da ee3c 791b e93c 08f0 e33c 67c1 e03c
00000190: 89e5 f73c 229c f33c 0308 ee3c 24e9 e83c
000001a0: c242 e53c ede1 f33c 27f4 ee3c 86b2 e83c
000001b0: bb03 e33c 9b22 df3c 0ad8 ef3c 7c49 ea3c
000001c0: 08a0 e33c 00ac dd3c efd1 d93c 0d16 ec3c
000001d0: 0034 e63c 548a df3c 9fbd d93c 2032 d63c
000001e0: 9340 e93c bb6c e33c d736 dd3c 11ee d73c
000001f0: 4ae3 d43c 1952 e33c 8997 de3c d6b5 d83c
00000200: 1a6d d33c bbf1 cf3c e459 df3c 3e02 da3c
00000210: af82 d33c e0be cd3c e910 ca3c c051 db3c
00000220: fa6b d53c 989d ce3c 39b7 c83c f825 c53c
00000230: 084a d73c e227 d13c 2675 ca3c f9d5 c43c
00000240: fea4 c13c 5afa d33c 8600 ce3c 5fd7 c73c
00000250: 68d2 c23c 2321 c03c fd71 5f3c 69bf 613c
00000260: a58f 653c c0f8 693c 7e2d 6e3c 0dc8 4e3c
00000270: 218d 503c 3fe6 543c bda4 5a3c dd78 603c
00000280: 8cbd 3d3c 86cf 3d3c f322 423c 067d 493c
00000290: 0976 513c 70e8 2e3c af14 2d3c c64c 313c
000002a0: 602d 3a3c 0514 443c b2c9 263c 9f3f 243c
000002b0: 6537 283c 6616 313c fd41 3b3c 8b72 3f3c
000002c0: 0f58 413c 3354 453c 0e4b 4a3c f65d 4f3c
000002d0: 15c9 2d3c e60c 2f3c 4c6d 333c 188a 393c
000002e0: 3f13 403c 5193 1c3c fc19 1c3c a355 203c
000002f0: c1e9 273c 3e70 303c e771 0e3c 831a 0c3c
00000300: b71f 103c 5b12 193c 4a4d 233c 1f8c 073c
00000310: 528a 043c 8f3b 083c 1902 113c 324b 1b3c
00000320: 2880 273c bf0e 293c 4153 2c3c 7868 303c
00000330: 3993 343c e87d 163c a68a 173c bb2d 1b3c
00000340: be47 203c 68aa 253c 8910 063c ea96 053c
00000350: ab17 093c 8081 0f3c b5a3 163c 3888 f13b
00000360: f142 ed3b 69e9 f33b 3e9a 013c 4f3c 0a3c
00000370: 5e4a e43b 6be3 de3b 9df9 e43b a8e0 f33b
00000380: 118a 023c bd24 373d c9cc 363d c803 363d
00000390: 78f7 343d 36eb 333d d7ca 353d a597 353d
000003a0: 9319 353d 7844 343d f159 333d 67ab 353d
000003b0: b4b7 353d e779 353d 54c9 343d 8bd9 333d
000003c0: d86d 353d f8b2 353d 0b86 353d b7ee 343d
000003d0: 5317 343d 708a 343d e3e5 343d 76ad 343d
000003e0: fe32 343d ab98 333d 5de8 223d 7aaa 223d
000003f0: a455 223d 8512 223d 1d23 223d 8a12 213d
0.0071752784 0.0072868667 0.0073606996 0.0073846667 0.0073672505 0.007102746 0.00721642 0.0072967107
0.0073255748 0.0073104533 0.0068614306 0.0069656246 0.0070441193 0.007070331 0.0070523433 0.006570641
0.0066589154 0.0067309216 0.006753314 0.0067308145 0.0063304384 0.006400426 0.006465383 0.006487597
0.006476714 0.0066697355 0.0067724683 0.0068578008 0.0069138715 0.0069453106 0.0065872613 0.006692245
0.0067834263 0.0068448647 0.0068767355 0.006369191 0.0064611547 0.006545053 0.006597541 0.0066169645
0.0061232126 0.006197822 0.0062713698 0.0063140457 0.0063198814 0.005938935 0.005996651 0.006062848
0.006102909 0.0061161653 0.0059385337 0.006038231 0.006140823 0.006227115 0.0062930225 0.0058560204
0.0059650964 0.0060787555 0.006174488 0.0062432033 0.0056719086 0.005773131 0.005881618 0.0059676
0.006022989 0.0054719127 0.005558811 0.0056554973 0.0057279235 0.0057659564 0.0053317915 0.005402769
0.0054882434 0.005551163 0.0055881687 0.031625237 0.031195479 0.030580018 0.029962823 0.029482746
0.03109516 0.03058748 0.029889664 0.029208425 0.028707197 0.030551828 0.029965894 0.029217927
0.02850664 0.028013628 0.030070487 0.02944203 0.028691206 0.028000237 0.02754924 0.029781139
0.029157132 0.028455483 0.027824417 0.027435971 0.030260818 0.029737536 0.029056555 0.028431483
0.027985934 0.029770816 0.029169155 0.02840544 0.02771174 0.02723818 0.02927782 0.028599493
0.02778627 0.027059555 0.026589362 0.028819108 0.028100967 0.02728764 0.026579676 0.026146948
0.028473174 0.027761808 0.027003689 0.026358636 0.025987286 0.027749108 0.027171867 0.026453894
0.02580886 0.02538382 0.027264543 0.026612397 0.02581915 0.02511543 0.024666267 0.02677238
0.026052464 0.02522163 0.02450143 0.024065956 0.026280418 0.025531713 0.024714064 0.024027811
0.023638245 0.025876213 0.025146734 0.02439469 0.02378197 0.0234533 0.013638017 0.013778546
0.014011298 0.014280498 0.014537213 0.012620938 0.01272896 0.012994348 0.013344941 0.013700691
0.011580836 0.011585122 0.011849153 0.012297874 0.012784489 0.010675535 0.010564013 0.010821527
0.011363357 0.011967664 0.010179924 0.010024934 0.010267113 0.010808563 0.011429307 0.011685024
0.01180078 0.012044 0.012346996 0.012656679 0.010607024 0.010684228 0.010951351 0.011324428
0.011723339 0.009556607 0.0095276795 0.009786042 0.010248602 0.010768948 0.008694149 0.008551243
0.008796624 0.009342755 0.009967158 0.008273154 0.008089619 0.008314981 0.008850598 0.009478377
0.010223426 0.010318457 0.010517896 0.010767095 0.011021429 0.009185292 0.009249365 0.009471352
0.00978273 0.010111429 0.008182653 0.0081536565 0.008367459 0.008758903 0.009194304 0.007370975
0.007240646 0.007443596 0.007910309 0.00843723 0.006966873 0.0068020127 0.006987764 0.0074425526
0.007967488 0.04471277 0.044628892 0.0444372 0.044181317 0.043925487 0.044382896 0.044334073
0.044213843 0.04401061 0.043786947 0.044352915 0.044364646 0.04430571 0.044137314 0.043908637
0.04429421 0.04436013 0.044317286 0.04417297 0.043967556 0.044077337 0.04416455 0.044110738
0.043993942 0.043846767 0.03977238 0.03971336 0.039632455 0.039568443 0.039584268 0.03932432

exp_avg f4 [6]
00000000: 9644 5ebc aa8b bf3d 0fff 033d 345f 2d3e
00000010: 48a5 ef3c 6c6f 0ebd
-0.013566157 0.09352811 0.032225665 0.16930848 0.029253617 -0.03477423

exp_avg_sq f4 [6]
00000000: d34a ba3c 53d2 da3d 42e7 6e3d d37e 2a3e
00000010: 1a91 413d d479 e83c
0.022740757 0.106846474 0.058326013 0.16649942 0.04725752 0.028378405
